fig/mt10_hard_disentanglement_fixed/model.pth (torch, 58263 bytes, 6 tensors)

embedding.weight f4 [400, 22]
000000 ce b7 46 bc e3 ca 3e bc c5 91 83 bc 59 2d 26 bd
       -0.012128783 -0.011645052 -0.01606072 -0.04057059
000010 f8 dc bd bc 5e 34 88 3b 97 f4 00 bd a2 74 1d bd
       -0.023176655 0.0041566333 -0.03148326 -0.038441308
000020 0f a4 24 bd 5d 4e 95 bb 2e 90 a0 bb eb 05 6f bc
       -0.04019552 -0.004556461 -0.0049 -0.014588813
000030 25 cf 4c bb f6 21 2d 3c e3 4c 06 bd 2e aa 66 3b
       -0.0031251397 0.010567179 -0.03278817 0.003519665
000040 6b dd 28 bd 32 57 34 3d 6b 7f e8 bb 2b f8 a7 ba
       -0.041226786 0.04402847 -0.0070952675 -0.0012815049
000050 2a 6d de 3b 86 a2 fe bc f9 9f 07 bd bc 88 ce 3d
       0.0067879157 -0.031083357 -0.033111546 0.10084674
000060 64 25 de 3d 7d 36 8a 3d 3b 71 dd 3d e4 4b b7 3d
       0.108469754 0.06748674 0.108126126 0.08950022
000070 b0 fe 97 bb 58 50 56 3d a3 f7 5d 3c e9 c0 70 bb
       -0.0046385154 0.052322716 0.013547811 -0.0036736077
000080 4d bc b2 3d e1 6f 84 3d c1 e4 87 3d 0d 4b bc bb
       0.08727322 0.06466652 0.06635428 -0.0057462514
000090 ae c6 86 3d 81 63 ed 3c 43 18 16 3d af 37 e3 3c
       0.06580864 0.028978111 0.03664423 0.027736513
0000a0 53 9d b9 3d a3 9e 53 bc c4 0d 27 3d fd f5 2e 3d
       0.0906321 -0.01291624 0.040784612 0.04271506
0000b0 a2 dc 95 3c e4 f1 d3 3b cb 63 93 bc 7b a8 42 bd
       0.018293682 0.0064680446 -0.017991921 -0.047523957
0000c0 3f a1 a4 bd 5a 14 01 bd e5 ec f7 ba fd 32 c1 bc
       -0.08038568 -0.03151355 -0.0018915205 -0.023583883
0000d0 96 cf 21 bd 72 b9 a5 bb 7a da 7f 3c d6 f4 01 bd
       -0.03950461 -0.005057507 0.015616054 -0.031727634
0000e0 a1 3f 1a bd 2b c9 5d 3d 71 1e 8b bc 40 96 22 3d
       -0.037658338 0.054146927 -0.016982289 0.03969407
0000f0 ac d4 83 3d 96 de 80 3d 0b 33 b3 bc 32 f7 05 3c
       0.06437048 0.06292455 -0.021874925 0.008176612
000100 31 c3 d2 bc 22 88 62 39 9e 6b e3 bb da 50 d9 bc
       -0.02572784 0.00021603753 -0.006940319 -0.02652781
000110 64 9b d0 bc 77 59 87 3c 7c c3 f3 bc ae 7a 5f 3c
       -0.025464721 0.016522152 -0.0297563 0.013640089
000120 ba c9 98 bc ad ba f2 bc 6a 7b 25 ba a2 d7 85 3c
       -0.018650878 -0.02963003 -0.00063126406 0.016338173
000130 16 da bb bc 61 8e 80 3b 7a a1 5d bd 31 4a a4 3c
       -0.02293114 0.003923223 -0.054109074 0.020054908
000140 fd 8d 1d bd eb 97 c0 bc 45 ef 9b ba b0 2f f9 bc
       -0.03846549 -0.02350994 -0.0011896869 -0.030418247
000150 eb 28 b4 3c 9e 14 7a bc 32 b7 1d bc fb 24 9d 3c
       0.021992167 -0.015263705 -0.009626197 0.019182673
000160 17 6f 65 bc 2d 29 f0 3c 4d 5e 86 3b 35 50 65 bc
       -0.014003537 0.02931651 0.004100597 -0.013996174
000170 ef f1 f0 3c 4b a6 2f 3d e8 b2 74 3c 14 c1 ad bc
       0.029412238 0.0428832 0.014935233 -0.02121023
000180 51 80 e9 3a bc 0a 8e bc a1 16 59 3c b6 ca dd bc
       0.001781473 -0.017339103 0.013250024 -0.0270742
000190 17 84 b6 3c b1 39 6c 3d 34 0e 69 3c 06 a3 83 bc
       0.022279782 0.057672206 0.014224578 -0.016068947
0001a0 c5 ba 96 3c 24 8d ab bb 15 45 f4 bc ae 73 0b 3d
       0.018399606 -0.005235331 -0.029818097 0.034045868
0001b0 a5 19 fd bc 9b 07 9a 3b 69 99 23 bd 8b ac 1f 3d
       -0.030896017 0.0047006137 -0.039941225 0.03898291
0001c0 54 a8 9c bb 33 ea fc bb 36 21 88 3d 35 f3 20 3d
       -0.0047808085 -0.0077183484 0.066469595 0.03929444
0001d0 ae f0 3c bc bf 42 3d bc 1e a1 a9 bc 1e e8 ea bb
       -0.011531992 -0.011551558 -0.02070671 -0.007168784
0001e0 a7 95 6f 3d 2f d3 ed 3c 32 53 1c 3d 4a c4 3e bd
       0.05849233 0.029031364 0.03816528 -0.046573915
0001f0 bd 7d 57 3d 8a 68 a6 3c 04 bb 02 bc bf 71 08 3d
       0.052610148 0.02031352 -0.007979158 0.0333116
000200 50 6c 8b b9 11 a2 3b 3d af 1e ba bc f6 1f 40 3d
       -0.00026592845 0.045808855 -0.02271971 0.04690548
000210 43 8d a0 bc 5c 8e 97 bc ab dd a5 bc bb bb 14 bd
       -0.019598609 -0.0185005 -0.020247301 -0.036311846
000220 52 34 df 3c 05 f0 8d 3c 3d b0 08 3c 52 88 d3 3c
       0.027246628 0.017326364 0.0083428 0.025821839
000230 7a f8 29 bd b1 92 58 3d 90 24 36 3d 61 4a 46 bc
       -0.04149673 0.05287427 0.044468462 -0.012102694
000240 9c dc 4c 3d 90 5d 74 bb ee 05 82 3d f0 11 db 3c
       0.050015077 -0.0037287213 0.06348787 0.026741952
000250 ca 31 44 3c 49 14 c1 3c 1b f5 46 3c 38 2f c7 3c
       0.011974761 0.023569243 0.012143399 0.024314508
000260 e8 f1 fd bb f7 32 db 3c 4d 27 df bc 36 dd c1 bc
       -0.0077497847 0.0267577 -0.02724042 -0.023665052
000270 49 83 0c bd 96 ec e1 bc 2f af 7d bc f1 17 88 bd
       -0.03430489 -0.027578633 -0.015483662 -0.066451915
000280 8b cb 3d 3c cf 77 1b bd 80 f4 b6 bc 9c 05 4f 3c
       0.011584173 -0.037956055 -0.022333384 0.012635615
000290 95 1b 87 3b d2 a8 f7 bc 9c 37 84 bd ab 28 e6 3c
       0.004123161 -0.030231867 -0.06455919 0.028095564
0002a0 94 4e 0f 3c dd 5c ef bc 27 c8 ec bc f3 21 55 bd
       0.008746762 -0.029219085 -0.028904034 -0.05203433
0002b0 aa cb fc bb 06 43 38 3c 8f b3 f1 3b 1c 90 e1 bc
       -0.0077147083 0.011246448 0.0073761414 -0.027534537
0002c0 a2 43 2c bd 9d 9a 59 38 b6 9f a7 3d 54 c5 b1 bc
       -0.042056687 5.1880827e-05 0.08184759 -0.021700539
0002d0 b7 7e e8 3c 58 d0 8d 3d f1 86 a2 3b 87 dc 2a 3c
       0.028380735 0.06924504 0.004959934 0.010428554
0002e0 1f 9b 83 3d 15 74 74 3d 68 c5 18 bc b6 d3 95 3d
       0.064260714 0.059681017 -0.009324409 0.07315771
0002f0 a7 70 e8 3c ae 48 46 bc ca 34 a3 3d 3f fd bd 3b
       0.02837403 -0.012102289 0.07969053 0.0057980116
000300 f8 2c 0b bd ef 74 36 3c d7 91 28 3d 31 b4 d1 3c
       -0.033978432 0.011136278 0.04115471 0.025598617
000310 48 8c e9 b9 14 f1 e8 bc 42 e3 12 bc 37 e9 63 ba
       -0.0004454574 -0.028435268 -0.008965315 -0.00086941145
000320 54 64 f0 3b 61 72 01 3d 4b 11 84 3c 38 15 60 bb
       0.007336179 0.03160322 0.016121527 -0.0034192335
000330 7d 38 03 3d 4c 3b a7 bc 6d b0 72 3d 18 c9 19 3d
       0.032036293 -0.020414017 0.059250284 0.037545294
000340 56 d0 ce 3c 9d 7f ff 3b 24 0d 02 bd 7d 83 65 bc
       0.025245827 0.007797195 -0.031750813 -0.0140084
000350 cb 1f be 3a f0 61 1b ba 88 2e 27 bd 45 10 96 bd
       0.0014505325 -0.00059273746 -0.04081586 -0.07327322
000360 a8 ce 20 3d 4a 61 45 3d 6f 53 58 3c 0a 2c fe bc
       0.039259583 0.048188485 0.013203486 -0.031026859
000370 16 cd ba 3c 46 c0 69 3d 9b 87 91 bc d6 c5 04 3d
       0.02280287 0.057068132 -0.017764857 0.032415234
000380 a4 be 7e 3d b1 d5 78 3c 24 08 36 3d 76 69 99 3d
       0.062193528 0.015187667 0.044441357 0.07490818
000390 00 3f 6d bc 86 0f 1f 3d 79 f7 04 3d 6a 7a 0f bc
       -0.014480352 0.038833164 0.03246257 -0.008757213
0003a0 f2 d1 00 3c 09 e7 71 3c 01 2f fb 3c c6 24 4b bd
       0.007862555 0.014764556 0.030662062 -0.049595617
0003b0 62 c8 71 3d b2 d6 6b 3d f0 45 85 bd 39 4a f8 3c
       0.05902899 0.057577796 -0.0650748 0.03030883
0003c0 9d 7e 24 3d ef 13 07 3d 2d 0a 89 bd c5 27 e3 3c
       0.04015981 0.032977995 -0.06691394 0.027728925
0003d0 16 d8 8a bb 3b 7c 39 bc f9 ad 0c 3d 95 e0 86 bc
       -0.004237185 -0.011321123 0.0343456 -0.016464511
0003e0 65 56 35 bd ff 21 f4 bc 07 80 49 3c 16 96 bc bc
       -0.044271845 -0.029801367 0.0122985905 -0.023020785
0003f0 7c 06 4a 3d 6f 6c 73 3d c2 b4 9a bd 70 d9 37 3d
       0.04932259 0.059429582 -0.07554008 0.0448851

embedding.bias f4 [400]
000000 6d e1 85 3d 52 91 26 3e 3c 64 82 3d e0 ea 8b 3d
       0.06537137 0.16266373 0.063667744 0.06831908
000010 59 94 0a 3e 2e fd 0e 3e 09 e7 f9 3d 92 a2 85 3d
       0.13533153 0.13963768 0.122022696 0.065251485
000020 1e a0 10 3e 3d 6b b4 3d ba b2 0d 3e bd 74 ba 3d
       0.1412358 0.088095166 0.1383771 0.09104297
000030 dc ab 82 3d e8 c9 e1 3d 69 de 8f 3d ac 1f 1e 3e
       0.06380436 0.11024839 0.07024843 0.1544177
000040 a4 25 84 3d 6b 75 de 3d ca 38 19 3e 20 1a 19 3e
       0.06452492 0.108622395 0.1496307 0.14951372
000050 21 4f bc 3d be 45 13 3e 86 7d b8 3d 74 24 e7 3d
       0.0919478 0.14382073 0.09008317 0.1128625
000060 a2 ef 1d 3e cf 74 b5 3d ce dc dd 3d 81 7a 2b 3e
       0.15423444 0.0886017 0.10833131 0.1674595
000070 e1 f5 dd 3d 68 20 b6 3d 9c df 17 3e 1d 32 07 3e
       0.10837913 0.088929 0.14831394 0.1320271
000080 0a 00 01 3e 15 f1 dd 3d 2c c0 dd 3d 73 0b 14 3e
       0.12597671 0.108369984 0.108276695 0.14457493
000090 61 6f 06 3e 5f 0f 8c 3d 2f 97 e1 3d 83 d7 e5 3d
       0.13128425 0.06838869 0.11015164 0.11222746
0000a0 b9 86 bb 3d 34 65 27 3e 4f 22 06 3e 3b 2e e3 3d
       0.09156556 0.163472 0.13099025 0.11092802
0000b0 c1 d6 d4 3d 4b 1e 14 3e 44 49 33 3e 19 06 16 3e
       0.103925236 0.14464681 0.17508417 0.14650764
0000c0 44 e1 c9 3d ac 08 d3 3d a6 d7 23 3e 77 28 97 3d
       0.09857419 0.103043884 0.16000232 0.07380765
0000d0 47 fc f4 3d d6 d6 0f 3e b0 f0 a2 3d 0f 9d 6b 3d
       0.119621806 0.14046797 0.07956064 0.05752283
0000e0 dd 3f 28 3e 8b 73 2d 3e 90 b4 a1 3d 83 bf eb 3d
       0.16430612 0.16938607 0.07895768 0.11511137
0000f0 ab 99 05 3e e3 cd c4 3d c4 07 a2 3d 9a ce 03 3e
       0.13046901 0.09609582 0.079116374 0.12871781
000100 3f 01 17 3e 2f f0 2f 3e 8d f6 ea 3d 76 82 d2 3d
       0.14746569 0.17181467 0.11472807 0.1027879
000110 9c 89 d3 3d 56 cd d2 3d cf 6e 01 3e f0 21 da 3d
       0.10328981 0.10293071 0.12639926 0.10651004
000120 c6 c1 9a 3d fe e4 11 3e 3a df 9f 3d e0 87 10 3e
       0.075564906 0.1424751 0.07806249 0.14114332
000130 65 cc cd 3d a9 80 fd 3d f4 37 ea 3d 69 05 ef 3d
       0.10048751 0.123780556 0.114364535 0.11670954
000140 c1 78 29 3e 4e 1f 04 3e 45 d1 bc 3d a8 be 29 3e
       0.1654997 0.12902567 0.092196025 0.16576636
000150 71 b1 b6 3d 1a 20 9e 3d 83 38 2d 3e 98 e6 eb 3d
       0.08920563 0.07720967 0.16916089 0.11518592
000160 06 60 d0 3d 99 57 f1 3d f9 07 99 3d 50 4d f6 3d
       0.10174565 0.11784286 0.07472224 0.12026465
000170 bb 85 92 3d 3c b4 d9 3d da a0 a2 3d 28 26 0c 3e
       0.07154413 0.1063008 0.07940836 0.1368643
000180 33 b5 90 3d 95 ce 91 3d 3d 09 a5 3d 77 71 f6 3d
       0.07065811 0.071194805 0.08058403 0.120333605
000190 1c 8f 10 3e 2c ae fc 3d 2a 81 ff 3d 77 39 2d 3e
       0.14117092 0.12337908 0.12475808 0.16916452
0001a0 2b f0 9f 3d 05 02 05 3e 40 a3 05 3e 86 1d 0b 3e
       0.0780948 0.12989052 0.13050556 0.13585481
0001b0 f6 35 2d 3e da 1c f1 3d ad 0d 1c 3e aa 14 83 3d
       0.16915116 0.11773081 0.15239592 0.06400426
0001c0 ab 18 2f 3e 53 6d 9d 3d f7 41 2d 3e e2 b5 7c 3d
       0.17099254 0.076868676 0.16919695 0.061696894
0001d0 11 cb 19 3e 65 37 dd 3d af 5d 26 3e 81 60 12 3e
       0.1501887 0.10801581 0.16246675 0.14294626
0001e0 19 74 0f 3e d9 9a 1f 3e cd 22 cd 3d 76 8d b9 3d
       0.14009131 0.15586413 0.10016403 0.09060185
0001f0 1f 27 7d 3d e1 98 b1 3d 45 7c 1d 3e f8 df b1 3d
       0.061804887 0.086717375 0.15379436 0.08685297
000200 00 19 1d 3e 9c 56 0d 3e 15 f3 cf 3d 41 be b7 3d
       0.15341568 0.1380257 0.10153786 0.08971835
000210 18 6c f2 3d 87 21 1e 3e 11 fc 23 3e 79 71 cc 3d
       0.118370235 0.15442477 0.16014124 0.09982581
000220 a2 97 0c 3e f8 eb 0c 3e 9a 19 1c 3e da 25 c6 3d
       0.13729718 0.1376189 0.15244141 0.09675188
000230 0f 3c 82 3d 15 01 cf 3d 2d 18 98 3d 9f 8c bd 3d
       0.063591115 0.10107628 0.07426486 0.09255337
000240 0d e3 20 3e a2 99 f2 3d a5 54 8f 3d 1f dc a8 3d
       0.15711613 0.118457094 0.069985665 0.0824511
000250 9e 49 1b 3e 14 36 ed 3d 0c d3 9f 3d 6f cc 07 3e
       0.15164801 0.1158258 0.07803926 0.13261579
000260 80 05 23 3e 1f 23 d7 3d 3b 5d e2 3d 22 96 05 3e
       0.15920067 0.10504746 0.110529386 0.13045552
000270 67 08 98 3d 44 d5 9d 3d 35 b4 af 3d 6c 3d 26 3e
       0.074234776 0.07706693 0.08579294 0.16234368
000280 0d cf f1 3d 0f 8e 24 3e 47 87 9d 3d bf e8 6e 3d
       0.1180707 0.16069816 0.07691818 0.058327433
000290 0d 17 1f 3e 31 80 24 3e ae bf a0 3d f1 b0 15 3e
       0.15536137 0.16064526 0.0784906 0.14618279
0002a0 9d d8 ac 3d 5d 7a d7 3d c8 3f 07 3e bc 88 b2 3d
       0.08439753 0.10521386 0.13207924 0.08717486
0002b0 ab 8d d0 3d f6 0b 17 3e 95 de 05 3e 07 6e d8 3d
       0.10183271 0.14750656 0.1307319 0.10567861
0002c0 6f a4 e2 3d 44 41 94 3d 8a c2 e7 3d 18 32 29 3e
       0.110665195 0.07239011 0.11316402 0.16523015
0002d0 79 f3 23 3e 75 6f c4 3d 2c 47 10 3e 91 1a 16 3e
       0.16010846 0.09591571 0.1408965 0.14658572
0002e0 ba 83 08 3e 13 d3 24 3e 84 71 b2 3d 21 69 ee 3d
       0.133315 0.16096143 0.08713058 0.116411455
0002f0 56 7a 11 3e a5 1e d9 3d fc f3 8d 3d 66 07 ec 3d
       0.14206824 0.10601548 0.06931302 0.11524849
000300 1e 03 e2 3d c2 e1 2b 3e e6 0c 24 3e 92 1f cf 3d
       0.11035751 0.16785339 0.16020545 0.101134434
000310 6d 0a 1e 3e ac 93 21 3e 4f 5b c0 3d 0b 1b b9 3d
       0.15433665 0.15778989 0.09392416 0.09038361
000320 de b7 e6 3d 11 bd 9f 3d 54 51 c5 3d 7b 95 b0 3d
       0.11265539 0.077997334 0.09634653 0.08622261
000330 c1 7e 02 3e 99 ae f6 3d 1a 82 e1 3d c2 06 16 3e
       0.12743665 0.120450206 0.11011143 0.14651015
000340 30 14 26 3e 07 a6 07 3e 45 09 d5 3d c2 22 23 3e
       0.16218638 0.13246928 0.10402159 0.15931228
000350 78 d6 22 3e 3c e2 32 3e cd 01 84 3d 99 80 28 3e
       0.15902126 0.17469114 0.06445656 0.16455306
000360 19 1d cf 3d 15 2c f3 3d 78 f9 2e 3e e7 97 0e 3e
       0.10112972 0.11873642 0.17087352 0.13925134
000370 f9 da 1a 3e 3f 0f ec 3d fd 5f 26 3e b4 96 1b 3e
       0.15122594 0.115263455 0.16247554 0.15194207
000380 cc 35 9f 3d 4c 32 e1 3d 44 db 26 3e 95 ea d8 3d
       0.07773933 0.109959215 0.1629458 0.10591618
000390 2e 71 e6 3d db 7e c4 3d e9 b5 fa 3d 98 15 97 3d
       0.11252056 0.09594508 0.12241728 0.073771656
0003a0 b0 85 0a 3e 58 67 18 3e bc 7c ee 3d cd 92 ca 3d
       0.1352756 0.14883173 0.11644885 0.09891281
0003b0 3c ae f7 3d e0 09 2a 3e c1 f1 33 3e 43 ca 24 3e
       0.120937794 0.1660533 0.1757269 0.16092782
0003c0 c8 1e d2 3d 26 e2 0d 3e 6c 37 17 3e b9 fc 25 3e
       0.10259777 0.138558 0.14767236 0.16209687
0003d0 4d 03 19 3e cf b0 cd 3d b3 c9 fb 3d 98 b3 2b 3e
       0.14942665 0.10043489 0.122943304 0.16767728
0003e0 f1 9d 25 3e 10 7c 29 3e c7 3c d3 3d 2d d7 88 3d
       0.16173531 0.16551232 0.10314327 0.066816665
0003f0 ee c5 c6 3d 04 2f 1b 3e 30 4e 04 3e bf cc f6 3d
       0.09705721 0.15154654 0.12920451 0.12050771

encoder.weight f4 [10, 400]
000000 b3 6f 7f be 88 8a 9c be b5 4f 08 3e 95 16 88 3e
       -0.24944954 -0.3057444 0.13311656 0.2657973
000010 7a b3 1e 3e f7 79 70 be 95 58 e4 3d 69 37 95 3e
       0.15498152 -0.23484026 0.11149708 0.29143837
000020 7f 51 55 be 44 fe 71 3e 3c 7e 9e be a8 af 87 be
       -0.2083187 0.23632151 -0.30955684 -0.26501203
000030 94 b3 8f 3e 87 ef 9a be 15 49 a1 be 0a b6 9b be
       0.28066695 -0.3026087 -0.3150107 -0.30412322
000040 59 19 f0 bd e5 d4 97 3d 1f 61 79 3e b3 db 0b 3e
       -0.11723585 0.07413653 0.24353455 0.13658027
000050 56 c6 3f 3d 80 97 f6 3b 7e c8 a8 3c 6c 50 79 3e
       0.046820007 0.0075253844 0.020603415 0.24347085
000060 6a 61 b8 3d 09 12 99 3d ea 3b b8 bd 8e 1d 3d 3d
       0.09002955 0.07474143 -0.08995803 0.046170764
000070 08 51 5b be 8a d3 07 bd da 15 8f be a3 d5 74 be
       -0.2141763 -0.033160724 -0.2794636 -0.23909621
000080 08 a9 5a bd 5f 35 ff 3c 12 e0 14 be 27 ed 45 3c
       -0.053383857 0.031153379 -0.14538601 0.012080467
000090 06 9c e7 3d f5 10 63 be b4 37 8e 3d f1 90 65 3e
       0.11309056 -0.22174437 0.06944218 0.22418572
0000a0 3b 67 83 3d 5b 68 4b bd 83 a9 88 be 4b b5 96 be
       0.06416174 -0.049660068 -0.26691827 -0.2943519
0000b0 9d 25 63 be 74 ec 8e bb e8 fc 94 bd 8e 1d 51 be
       -0.22182317 -0.0043616835 -0.072748005 -0.2042143
0000c0 bd 97 4f 3b cb ab 21 be c6 30 f4 3c f9 5a 87 3e
       0.0031676136 -0.1578819 0.029808413 0.26436594
0000d0 8b 1f 2e 3d 71 05 7b bd ce f9 4e be fd 29 c5 3d
       0.04251055 -0.061284486 -0.2021248 0.09627149
0000e0 41 b8 36 be 8e d0 03 3e 11 6b 86 3c 16 a2 6a be
       -0.17843725 0.12872526 0.016408475 -0.22913393
0000f0 cb 03 51 bd 0d 76 94 3d b9 8b 26 3e 94 a4 32 be
       -0.051029008 0.07249079 0.16264237 -0.17445594
000100 c0 1e 56 3e 6e 4d 8f be 5b fb 87 be 63 40 11 bd
       0.20910168 -0.27988762 -0.26558957 -0.035461795
000110 52 4c e5 bc fa e7 16 3e f3 e0 a1 be 95 75 92 3e
       -0.027990494 0.1473693 -0.31616935 0.28605333
000120 ff 41 4c 3e c7 08 92 bd 76 d9 3d 3e ad 90 8c be
       0.1994705 -0.071305804 0.18539986 -0.2745413
000130 ec 99 f1 bd 2c 50 c3 3d dd 82 89 3e 53 f7 8b be
       -0.117969364 0.09536776 0.26857653 -0.2733713
000140 e1 83 4f bb 38 26 9d be bd b4 75 3e 8c c6 d8 bd
       -0.00316643 -0.3069322 0.23994727 -0.10584745
000150 31 19 24 3d e3 a4 4f be 65 66 c7 3d e4 b4 80 bc
       0.040063087 -0.20277743 0.09736327 -0.015711255
000160 be 2d c2 3d db 1c 30 3e 95 57 4c 3d d1 bb 0c be
       0.09481381 0.17198507 0.049888212 -0.13743521
000170 50 e4 53 3e 6a ec 15 be e8 a8 72 3e d1 63 88 bd
       0.20692563 -0.14640966 0.23697245 -0.066596635
000180 62 55 41 3e d1 89 d8 3d 28 9c c7 bd 6e 8c 2f 3e
       0.18880227 0.105731614 -0.09746581 0.17143413
000190 69 09 31 3e 61 0b 40 bd e5 7f a0 3e af 9a 8b 3e
       0.17288746 -0.04688585 0.31347576 0.27266452
0001a0 90 f2 45 bd 06 5f 61 be 97 71 1e 3e 1e d6 7f be
       -0.04832703 -0.22008905 0.15473019 -0.24984023
0001b0 79 44 18 be fa ef 7f be 7c a2 a0 be 7a 81 73 3e
       -0.1486987 -0.24993888 -0.31373966 0.2377986
0001c0 a0 8d 93 be fa 03 3b 3d cc 2d d6 3d 84 d8 8f 3d
       -0.2881899 0.04565809 0.10457954 0.07023719
0001d0 9b de 1a 3c 10 67 4d 3d 46 94 f0 bd f7 11 19 3d
       0.009452487 0.050147116 -0.11747031 0.03737065
0001e0 e6 84 a1 be 5e 0c da bd 10 0b dd bb 0e 52 5c bd
       -0.31546706 -0.1064689 -0.0067457035 -0.05378919
0001f0 0a b8 28 3e b2 60 fa 3d 82 b1 83 3e 63 d5 f4 3d
       0.16476455 0.122254744 0.25721365 0.11954763
000200 83 1f 59 bd bb 5e 6b be 23 dc 88 bd 5b 7e 1f 3e
       -0.053008568 -0.22985356 -0.06682613 0.15575545
000210 49 96 0a 3e 0d 6a 25 be 62 5d 35 be f6 dd 13 be
       0.13533892 -0.16153736 -0.17711404 -0.1444014
000220 24 3e 6c be 09 37 66 be d4 fa 4f bd 40 81 3c 3e
       -0.2307058 -0.22481932 -0.050776318 0.1840868
000230 e9 57 56 3e 04 9b 36 3d d8 0e 9b be c6 ea ca bd
       0.20931973 0.04458143 -0.30284762 -0.09908061
000240 74 ec 69 3e 58 cd 3e 3d ef 43 93 be a9 dc 76 3d
       0.22844106 0.04658255 -0.28762767 0.06026903
000250 e7 55 26 be 63 b7 aa bc 82 76 8f 3e 48 3e 2a bc
       -0.16243707 -0.020839399 0.28020102 -0.010390826
000260 81 80 8c be 0b 38 a5 3d 6e 2d 43 bb c2 db c3 b9
       -0.2744179 0.0806733 -0.0029781717 -0.0003735703
000270 6c 7a 29 3e f9 1f 89 3e 68 29 cd 3d fd 5b 67 bd
       0.16550606 0.26782206 0.10017663 -0.05648421
000280 9b e8 fe bd 17 39 8a 3e 35 d9 3b b9 c9 a0 93 bd
       -0.1244671 0.2699668 -0.00017914626 -0.07208402
000290 09 6a 37 3e d4 e6 f4 bd 04 6b 85 3e fa 1b 3a 3e
       0.17911543 -0.119580895 0.2605821 0.18174735
0002a0 e1 d5 65 be e7 e6 56 bc c0 c3 a1 be e2 40 ab 3c
       -0.2244487 -0.013116575 -0.31594658 0.020904962
0002b0 fb eb a3 3d 98 65 dc bd 81 fd 9e be f3 68 dc 3b
       0.08003994 -0.10761565 -0.31052783 0.006726378
0002c0 98 44 4f 3e 95 b0 3c be da 50 8b bd 6a 41 fe bd
       0.2024101 -0.18426736 -0.068025306 -0.124148205
0002d0 58 61 2f be 53 98 40 be 78 a2 bb bd b5 da 2e bd
       -0.17126977 -0.18808107 -0.09161848 -0.042689044
0002e0 5a 11 9c be 0c 6a 4f be d3 fc 31 be 3a e2 5f 3e
       -0.30481988 -0.20255297 -0.17381601 0.21863642
0002f0 77 a0 91 3e 42 18 a8 3d 3f fc ae 3d fc a2 ba bd
       0.28442737 0.08207752 0.08544206 -0.09113118
000300 a0 2b 8c be 26 78 96 3e 28 b2 13 3e 89 77 4f be
       -0.27377033 0.2938854 0.1442343 -0.20260443
000310 1e 7d 94 3e aa 51 5d be d4 30 86 be 4b 53 3f 3e
       0.29001707 -0.21613184 -0.26209128 0.18684117
000320 77 ed b6 3d c1 a4 44 3d 60 d8 7f be d2 95 97 be
       0.089320116 0.048008684 -0.24984884 -0.2960649
000330 b3 a6 29 bd 22 69 9a bd fa 51 9d 3d 41 bc 57 bd
       -0.041418742 -0.07539584 0.076816514 -0.052669767
000340 51 5f ce bd 3b 63 10 bc a9 4c 16 be 52 34 9e 3e
       -0.10076774 -0.008812721 -0.14677681 0.30899292
000350 84 b4 7f 3e 5b 54 3f 3e d8 a6 ba bd 7c c8 e8 bd
       0.24971205 0.18684523 -0.09113854 -0.11366364
000360 b5 f6 3c 3d 46 45 02 be 95 88 7d 3e 00 63 34 3e
       0.046133716 -0.12721738 0.24759133 0.1761589
000370 99 5b 02 bb c3 39 a5 bc 33 11 8f bd ea 0a 7b bd
       -0.0019891022 -0.020169144 -0.06985702 -0.061289705
000380 22 20 75 3e 99 f9 4c be 12 2d 4e bd 2e 91 07 3e
       0.23938039 -0.20017089 -0.05033595 0.13238975
000390 d1 19 9e 3e 25 9e 29 be 44 35 80 3e bf ec 28 3e
       0.3087907 -0.16564234 0.25040638 0.16496561
0003a0 e1 10 41 be a6 c3 08 3e 6a e9 a0 3e a8 cb 59 be
       -0.18854095 0.13355884 0.3142808 -0.21269095
0003b0 b8 95 67 be 15 5e c6 3d d0 20 8a 3e 69 89 95 be
       -0.22615707 0.096859135 0.2697816 -0.29206398
0003c0 2e d1 95 be 6c f1 f8 bd 15 1a 20 be f0 54 12 3d
       -0.29261154 -0.121554226 -0.1563495 0.035725534
0003d0 6b 8b 54 3e b3 46 15 be 63 8b 7d bc 6e c1 87 3e
       0.20756309 -0.14577751 -0.015475127 0.26514763
0003e0 ce fb 94 3e fa fb 32 be 80 f4 9f 3e 0f ae 78 3e
       0.29098362 -0.17478934 0.31241226 0.24285148
0003f0 b2 74 44 be 47 97 03 3e 96 51 91 3e 34 2f 3c be
       -0.1918514 0.12850676 0.28382558 -0.18377382

encoder.bias f4 [10]
000000 13 43 cb 3d b7 2d 17 3e f8 42 0c 3e cd cc cc 3d
       0.09924903 0.14763533 0.13697422 0.1
000010 5c 24 09 3e ab 78 13 3e 2a 46 10 3e 6a 10 0f 3e
       0.13392776 0.144015 0.14089265 0.13971105
000020 53 33 09 3e 65 f9 00 3e
       0.13398485 0.12595136

decoder.weight f4 [80, 10]
000000 2f 5e d8 bd 2f 92 4f bd fd 6f 30 bd 1c 20 e1 bc
       -0.10564839 -0.05067652 -0.04307555 -0.027481131
000010 d2 ee 2c bd 5d 36 0d 3e f3 c9 35 bd ff c0 61 3c
       -0.042219944 0.13790269 -0.044382047 0.013778924
000020 56 e8 22 bd af f6 9b 3d d9 bf 24 3d c5 20 c3 bc
       -0.039772354 0.076154105 0.040222023 -0.023819337
000030 d7 87 9b bd 98 92 dc bd fa 08 d0 bd cb 33 99 3d
       -0.07594269 -0.10770148 -0.10157962 0.07480582
000040 14 6b 9f bc 50 32 b1 bb 83 fa 35 3d 33 4c e4 3d
       -0.019460239 -0.005407609 0.04442836 0.11147346
000050 d2 d4 c1 3d 98 24 8f 3d 48 9c 6d 3b ea 5d 74 bc
       0.094644204 0.069894016 0.003625648 -0.014914969
000060 a0 86 91 3a d8 09 ce bc 67 31 07 bd 89 22 bf bd
       0.0011102743 -0.025151178 -0.033006098 -0.09332759
000070 1c a6 11 bd 63 66 39 3d 5d 67 d2 bd a8 e1 83 3d
       -0.035558805 0.04526366 -0.10273621 0.06439525
000080 b4 88 3c 3d 20 3d 2e 3d a7 69 34 bd 0c 47 bb 3c
       0.046028808 0.042538762 -0.04404607 0.022861026
000090 10 87 0c be d7 04 8f 3d 2a ac 91 3c 53 9c 26 3c
       -0.13723397 0.06983345 0.01778229 0.010169107
0000a0 7a e9 e0 bd ed 6a 5d bd 7e fb 1e bd 29 af 0d bd
       -0.10982032 -0.05405705 -0.03881406 -0.034590874
0000b0 9c 8c c9 bd 4c 66 89 bd 32 f1 b0 bd 10 6e 9b bd
       -0.09841272 -0.06708965 -0.08639754 -0.07589352
0000c0 18 9a f4 bc 19 90 bc bd 88 d8 c5 bd 07 2f 2b 3c
       -0.029858634 -0.09207172 -0.09660441 0.010448224
0000d0 d2 72 e8 bd dd a2 ca 3d 6b 73 d4 bd 44 ae 1c be
       -0.11350025 0.09894345 -0.10373577 -0.15300852
0000e0 c6 1b e5 bd 24 23 91 bd 9f 7e df 3c a1 53 c7 bd
       -0.11186938 -0.07086781 0.027282057 -0.09732748
0000f0 94 52 a2 bd c3 b2 eb bd 73 ff 17 be 2a ea 4a bd
       -0.07925907 -0.115087055 -0.1484354 -0.049539723
000100 94 83 e1 bd 99 50 c8 3c 72 c7 21 bd ec 7a 31 bd
       -0.11011425 0.024452494 -0.039496846 -0.043330118
000110 ee d6 45 bc 82 79 d2 bd ed ca 31 bd 04 1e 58 bd
       -0.012075169 -0.10277082 -0.043406416 -0.052763
000120 27 48 63 bd ae 05 1b 3c ce cb ae 3c 57 b3 ec bd
       -0.05548873 0.009461803 0.021337416 -0.11557644
000130 cf f7 05 bd c4 63 e4 bd 84 4c 9e bd 04 93 c1 bd
       -0.03270703 -0.11151841 -0.07729438 -0.09451869
000140 8c 47 7b 3d df f7 39 bd 02 40 5e 3d ab 81 98 3d
       0.06134753 -0.045402404 0.05426026 0.07446607
000150 64 ad 93 bd 31 7b 5a 3d bd 41 ad 3c ed 1e 29 bd
       -0.07210806 0.05334014 0.02114951 -0.04128926
000160 6c f1 69 bc d6 8e 34 3d 7e 20 bd 3d d7 7a e5 3c
       -0.014278751 0.04408153 0.09234713 0.028012676
000170 e6 6f 22 3d 5c 2a 85 bd 9c 2a bb bd 81 1a af bd
       0.039657496 -0.0650222 -0.091389865 -0.08549977
000180 78 bc 58 3c fe 1c 85 3d 67 12 54 3d 82 f4 1b bd
       0.013228528 0.064996704 0.051775362 -0.038074978
000190 0b 7a 80 3d 76 ed ad bd 52 54 bb bd 79 f4 a0 3b
       0.06273278 -0.08492558 -0.09146942 0.004911956
0001a0 31 d1 cc bc 86 3d b2 3d 55 4f 5b 3d 2f 61 97 bc
       -0.025002094 0.08703141 0.053542454 -0.018478958
0001b0 43 0a e7 3b 10 28 c3 3c 7d e6 89 bb 4c 1d 9a 3d
       0.007050784 0.023822814 -0.0042083845 0.07525119
0001c0 3d 26 82 bd cd 79 b2 3c 4b 4e c7 3c 53 2d ae bd
       -0.063549496 0.021786595 0.024329325 -0.08504739
0001d0 20 de ac bc 1a 0a 32 bd b1 55 37 bc 3c c1 ba 3d
       -0.021102011 -0.043466665 -0.011189864 0.09118888
0001e0 6b a3 be 3d 33 c0 1c be d5 8f 8d bb d0 73 6c 3c
       0.09308513 -0.15307693 -0.0043201246 0.014431909
0001f0 8d 32 e7 bd b5 7c 55 bc ae 29 d4 bd 39 b4 8b bd
       -0.11288939 -0.013030221 -0.10359512 -0.06821484
000200 58 71 96 bd 90 89 cc bd d0 d3 83 3c d1 09 8a bd
       -0.07345837 -0.099871755 0.016092211 -0.067401536
000210 c1 39 18 bd a3 6b 74 bd 49 d3 9d bb da 45 16 be
       -0.037164453 -0.059672963 -0.004816447 -0.14675084
000220 a2 34 c5 bd fe 1c 18 be 49 01 42 bd 52 0f 35 3d
       -0.096291795 -0.1485481 -0.047364507 0.044204064
000230 7f 17 ce 3d bc db 87 bd 4b d1 b3 3b 95 6f 7d bd
       0.10063075 -0.06633708 0.005487596 -0.06187399
000240 58 10 10 be 98 0a 1f 3c 1e a4 0b 3d 02 1d 83 bc
       -0.14068735 0.009707116 0.03409206 -0.016005043
000250 e8 99 dd bd 38 f0 18 be 3f 13 bc 3d d2 34 eb bd
       -0.10820371 -0.14935386 0.091833584 -0.11484684
000260 0f 99 1a be 72 d9 8b 3d 9d 53 b5 bd 97 3e 2e ba
       -0.1509745 0.06828584 -0.088538386 -0.00066469
000270 25 4a e7 3b 7d 0f 87 bb fe 02 ea bd 4b 6f 6f bd
       0.0070583993 -0.0041217194 -0.11426352 -0.058455747
000280 3d 34 a7 3d db 6f fe 3c 42 40 b0 bd d4 73 e1 bd
       0.081642605 0.031059196 -0.08606006 -0.110084206
000290 f4 b9 ca 3d c2 f4 5a 3d 94 61 21 3c a7 98 73 3d
       0.09898749 0.053456075 0.009849925 0.059471752
0002a0 eb 5e e1 bd 0b 0e e0 bd 5c 3f de bd 5c 02 c8 bc
       -0.11004432 -0.109401785 -0.108519286 -0.024415188
0002b0 86 0a 67 3d 80 be 92 3b 29 cf 8f bd 68 43 bc bd
       0.05640652 0.004478276 -0.070219345 -0.09192544
0002c0 0c 3d ae 3d a2 c7 aa 3d 33 70 85 bd 96 ae 15 bd
       0.085077375 0.08338858 -0.06515541 -0.03654345
0002d0 4a ce 4c bd 3a 5f f4 bc 4a 7e 5b bc d0 3a 76 bc
       -0.05000142 -0.029830564 -0.013396809 -0.01502867
0002e0 f7 30 7c 3d 06 7f 02 3e 5e 32 f7 bc 86 00 9b bd
       0.061570134 0.12743768 -0.030175384 -0.07568459
0002f0 ff c0 1a 3d e0 73 bb bd 47 11 ba 3c ea 2c 5b 3c
       0.03778171 -0.09152961 0.022713317 0.013377408
000300 d0 69 69 bc ff ac 78 bd a2 0b 7b 3d ad 2b c4 bc
       -0.014246419 -0.060711857 0.06129039 -0.023946607
000310 0c 10 5e 3d 20 67 8f bc 0e d3 18 bd 6b 78 5d bd
       0.054214522 -0.017505229 -0.037310652 -0.054069918
000320 bf aa a4 3c 96 cd 9d bc 41 6a 13 be 79 3c 83 ba
       0.02010095 -0.01926307 -0.14396001 -0.0010012529
000330 b8 fd 5c bd 89 33 6b bb 39 1d ff bd 5e 90 31 bd
       -0.053952903 -0.0035888872 -0.12456746 -0.04335057
000340 a0 89 9c bc 79 53 a1 bd 5d 18 a2 bd f7 9d 1a bd
       -0.019108593 -0.07877249 -0.07914803 -0.037748303
000350 3f b0 ce bd b6 a2 cc 3b 61 33 b3 bd 9d 90 9a bd
       -0.1009221 0.0062449826 -0.08750034 -0.07547114
000360 87 0d 0b 3c 11 51 3e be 2c 6a a5 bc 06 7c 81 bc
       0.008487112 -0.18585612 -0.020192228 -0.01580621
000370 d1 62 bd bc 1b 9c 3c be ed 9c e1 bb 38 97 ba 3b
       -0.023118408 -0.18418925 -0.006885162 0.005694296
000380 53 d5 9b bd 72 b1 f4 bd e0 dd d0 3b a8 90 ba bc
       -0.07609048 -0.119479075 0.006374106 -0.022774056
000390 33 7f 50 bc ae 5e c1 bb 5a 2b ca bd 13 11 18 3c
       -0.012725639 -0.0059011793 -0.0987155 0.009281415
0003a0 5e a1 39 bd 57 3b e1 3d 39 e5 fe bd 8f 76 2d be
       -0.045319907 0.10997646 -0.124460645 -0.16939758
0003b0 b8 ad 01 be 3a e0 ff bd ac 31 12 be 4b 8e 72 3d
       -0.12663925 -0.1249394 -0.14276761 0.059217732
0003c0 93 04 9c bd 71 ee 51 3d 77 78 d3 bd a8 2f c3 bd
       -0.0761806 0.051252786 -0.10325711 -0.09530574
0003d0 f4 20 9b 3d 8d 87 61 3c 85 39 d7 bd b4 af 97 3d
       0.07574645 0.013765228 -0.10509018 0.074065596
0003e0 d6 c2 a2 3c 62 4b fe bb 50 fa bf 3b 2d f8 af bd
       0.019868296 -0.007760451 0.005858697 -0.08592258
0003f0 2d 46 fa 3c 04 dd 8f 3c 3b a6 65 bc 20 1c 83 bd
       0.03055104 0.017561443 -0.014016683 -0.06401849

decoder.bias f4 [80]
000000 9d f3 f2 3d 7c 79 eb 3d a2 c1 a6 3d f9 79 a4 3d
       0.11862872 0.11497781 0.08142401 0.08031077
000010 86 2c 86 3d 33 b8 8d 3d bc ee 8a 3d 12 7c 82 3d
       0.06551461 0.06919899 0.06783816 0.06371321
000020 62 05 98 3d 74 e7 94 3d e6 55 d8 3d ba 71 c3 3d
       0.07422902 0.07270709 0.10563259 0.09543176
000030 2a 67 a0 3d e6 e1 9d 3d fd b3 4e 3d ad 87 80 3d
       0.07832177 0.07709102 0.05046462 0.06275878
000040 65 25 b2 3d 91 6c d6 3d 96 d1 c6 3d 83 dc a9 3d
       0.08698539 0.10469926 0.09707944 0.082940124
000050 5d 6c 3c 3d b7 18 49 3d 5d 86 44 3d e1 5a 8b 3d
       0.04600178 0.049095836 0.0479797 0.06804443
000060 e1 62 c2 3d f0 75 e3 3d 35 3f b0 3d 66 da c5 3d
       0.09491516 0.11106479 0.08605806 0.09660797
000070 5f 3d 9b 3d da 99 6f 3d ca 9f 95 3d 8c 2e 00 3d
       0.07580065 0.058496334 0.07305868 0.03129439
000080 5c d3 bc 3d f1 5e b0 3d 44 4f b4 3d 73 1a bc 3d
       0.09220001 0.08611859 0.08804181 0.09184732
000090 cc 01 8f 3d f8 d3 8e 3d ea 3c 69 3d 83 ec 91 3d
       0.069827646 0.069740236 0.056942858 0.07125189
0000a0 81 ac c0 3d 48 dd ff 3d 89 0e b5 3d fc 4a b5 3d
       0.094079025 0.12493378 0.08840663 0.08852193
0000b0 11 4a a1 3d e7 47 94 3d ac f8 84 3d b5 4d 85 3d
       0.07875455 0.07240277 0.06492743 0.06508962
0000c0 d9 b3 b8 3d 11 7d d7 3d 9d 77 b4 3d f9 d6 dd 3d
       0.09018678 0.105219014 0.08811877 0.108320184
0000d0 bb af 7a 3d 0a b4 3d 3d fe 22 7e 3d 1f ac 93 3d
       0.061202746 0.046314277 0.06204509 0.07210564
0000e0 80 07 e2 3d 5f c7 f2 3d b7 72 b6 3d 1c 65 ab 3d
       0.11036587 0.11854433 0.08908599 0.083688945
0000f0 1f 63 8e 3d df 30 72 3d f3 8d 84 3d 05 e1 78 3d
       0.069524996 0.05912864 0.06472387 0.06076147
000100 c0 4d a6 3d 2a 4d c4 3d d2 17 a3 3d d5 14 cf 3d
       0.081202984 0.095850304 0.07963528 0.10111395
000110 3e bb 8d 3d 6d 69 8c 3d f5 04 a1 3d 42 ae 3f 3d
       0.06920479 0.06856046 0.078622736 0.046797045
000120 5a c9 ad 3d 3d d4 cc 3d 18 ab 91 3d 4a 6c f8 3d
       0.084856704 0.10001419 0.07112712 0.121300295
000130 54 01 3c 3d 58 cb 86 3d 3b 21 77 3d f0 41 68 3d
       0.045899704 0.065817535 0.060334425 0.056703508
