fig/mt10_hard_disentanglement_fixed/model.pth (torch, 54935 bytes, 6 tensors)

embedding.weight f4 [400, 22]
00000000: ed61 7ebc 866b 9a3c e766 6b3b 4a1e 16bd
00000010: 0616 e43b ca73 8d3c 1ab5 c7bc 074c ebbb
00000020: 3da3 c4bc 65cc 163c 30ec d63c 27d1 99bb
00000030: e070 1d3d 1c13 e9bb bb00 49bc dd91 af3c
00000040: aa07 3abc 774e 313d 24c5 bfbc b5c3 0b3c
00000050: 27f8 e2bc d3b3 29bb 9019 1bbd df5b 273d
00000060: fd5b 433d 56d0 253d 4f84 473d c202 1b3d
00000070: 26ec 24bd e48e 00bc e82e 25bd 0fff 2cbd
00000080: b16d df3c 46a3 6a3c b856 1c3d ade9 dabc
00000090: 6211 f03c 8455 8c38 8262 94bb e1bd 2fbc
000000a0: 9d61 1f3d 2592 2ebd 2840 673b 8996 f73b
000000b0: b570 fa3c 0813 183d c32c 633c 7cbb f8bc
000000c0: 5078 4bbd 8ca2 cdbb aa2e 323d c8a5 0a3c
000000d0: d219 aabc 3e97 303d e9ea 413d a0db 89bc
000000e0: 54f2 22bd 04b1 403d c79e c73c 8135 423d
000000f0: 39ec 133d 5dc3 513d c4ef 0e3c 6185 273d
00000100: 9c6c 4e3c bc58 063d 7992 b0bc ed7f e73b
00000110: b6dd 4a3b 04ed e83b 6a94 803b 2d3a 093d
00000120: 74df 11bd 54d5 813b 4f94 913c 0f3c b73a
00000130: 84a9 2c3c 2658 ad3c 0c60 2bbd ab6b 993b
00000140: 50a9 20bd b3d0 19bc ab7a ea3c 4844 0dbc
00000150: e01a 023c dddb 8b3c 8d0a 1d3c 2612 e43c
00000160: 1d52 e7bc e20a d93b f285 dabc 5c68 b7bc
00000170: 4f8d ff3b 2225 d73c 563a 96bc 7f99 35bd
00000180: fd22 19bc 6bb8 50bd ec11 14bc 55a2 f4bc
00000190: c15f bc3b 281d 393d 949c 5bbc a4ab 81b9
000001a0: 1455 10bc 02e7 643c 31f3 a4bc cedb 163c
000001b0: cd7d e2bc 1f08 23bd 4959 d0bc 8d39 aeba
000001c0: dc21 1abd eaac 55bc 79fe d33c 6487 663c
000001d0: 2886 d6bc 5143 56bd 6540 17bd 5282 b8bc
000001e0: a7fe 903c ab6f 593c 6936 213d 122c a6bb
000001f0: da12 153c a4de 13bc 8bc8 d83b 91d0 eb3b
00000200: 9cb1 6fbc ec7b 1a3c 4a3b 67bd ecff 1c3d
00000210: b3a6 8fbc ef6a 0ebd 359d 75bc b951 25bd
00000220: af82 303c fa9e e43c 07d9 1d3b 2d99 223c
00000230: 6350 a8bc 1a7a 263d f334 ed3c d269 4f3c
00000240: 109e e23a 0cea ed3c c6b2 333d a447 9b3c
00000250: 6af4 0dbc 8461 8b3c d890 2c3d d77c b23b
00000260: 4c6d d63c 188c 81bb 85db 6ebc 052d e13b
00000270: c362 dfbb 7a74 04bd aa2a 703c 0217 4cbd
00000280: 2737 ab3c 4367 eebb 19d0 96bb 6235 de3c
00000290: f6c5 0c3d 9d67 90bc a170 2bbd 6c80 263d
000002a0: d803 623b 18a0 55bd 8e16 3b3b 79ab d3bc
000002b0: 2daf 8bbc 95c1 ff3c f023 243c e4f1 be3b
000002c0: f65c 58bd fccc 11bd d472 063d c4f2 20bd
000002d0: 76f7 d8bb 3dbb e13c e611 04bd 962f c7bc
000002e0: 4174 d33c 548c af3c 6ac7 33bd b2c7 183d
000002f0: 3701 3e3d ef91 e1bc 901a b63c 26ce d03b
00000300: 2565 40bc 1dc0 053d 0833 1db7 03dc 4abc
00000310: cd17 41bd e19c 3abd fb5f a1bc 65fd 2d3c
00000320: e056 8cbb 2045 7c3c fc90 e53c d2a1 8fbc
00000330: 6f7e 013d f391 b0bb b443 1f3d 9b86 223d
00000340: f975 233d d902 78bc 4844 3a3c 3cf2 e3bc
00000350: 7afa c8bc 5174 ef3b 49cd 93bc 2cf4 1fbd
00000360: 5c36 8dbb 3a8f 593d 69e4 503c fa5f 87bc
00000370: 3e6d 3e3c a504 eb3c 573b 06bd 6a8a 203d
00000380: 8504 0c3d 91d1 c43c 9ea9 ed3c e143 393d
00000390: e994 323c 24c5 913c 265e 653b 9246 c43c
000003a0: 86a1 05bd 1462 563d 18e2 403c 23c6 90bc
000003b0: 3d46 0b3d 5bb6 1d3d 6f47 c7bc f5da 60bb
000003c0: ad95 e83c ee85 3bbc 67c8 25bd 76cb da3c
000003d0: f225 3d3b ad57 003c 57e7 033d e775 93bc
000003e0: 8549 b3bc b1ea 0bbd a6ad 023c a7da 273b
000003f0: d8e8 343d 8ad5 463d 40fc 4dbd 425c a83c
-0.015526277 0.0188501 0.003591949 -0.03664998 0.006960633 0.017267127 -0.024378348 -0.007180694
-0.02400362 0.009204005 0.02623567 -0.0046941224 0.038437724 -0.0071128737 -0.012268241 0.021431858
-0.011354366 0.04328772 -0.023409434 0.008530547 -0.027706219 -0.0025894537 -0.037866175 0.0408591
0.04769515 0.040481888 0.048710164 0.037844427 -0.04026427 -0.007846568 -0.040327936 -0.04223543
0.027273985 0.014321154 0.03816864 -0.026722753 0.029305164 6.691649e-05 -0.0045283446 -0.010726423
0.03891145 -0.042619843 0.0035286043 0.007555787 0.030571321 0.037127525 0.0138656525 -0.030362837
-0.049675286 -0.0062754806 0.043501534 0.008462377 -0.020764265 0.043112986 0.04734317 -0.016828358
-0.039781883 0.047043815 0.024367703 0.047414307 0.03611395 0.051211704 0.008724157 0.040898684
0.012599137 0.032799467 -0.021554219 0.0070648105 0.0030954904 0.0071083326 0.0039239423 0.033502746
-0.035613492 0.0039621983 0.017770914 0.0013979691 0.010538463 0.021160197 -0.041839644 0.0046820245
-0.03922397 -0.009388137 0.028622946 -0.008622237 0.007940978 0.017072612 0.009585035 0.027840685
-0.028237397 0.006623612 -0.026675198 -0.02238863 0.0077988277 0.026262823 -0.018338364 -0.04433584
-0.009346721 -0.050957125 -0.009037476 -0.029862562 0.0057487194 0.04519382 -0.01340403 -0.0002473268
-0.008809347 0.013971092 -0.020135494 0.009207679 -0.027647877 -0.039802667 -0.0254332 -0.0013292298
-0.037629947 -0.013041714 0.025878178 0.014070366 -0.026187018 -0.05231029 -0.036926646 -0.022523079
0.017699553 0.013271253 0.03935853 -0.0050711716 0.009098733 -0.00902525 0.0066157035 0.007196494
-0.014629748 0.009428959 -0.056453027 0.038330004 -0.017535543 -0.03476995 -0.014991094 -0.04036114
0.010773345 0.027907837 0.0024085657 0.009924215 -0.020546144 0.04064379 0.028955912 0.012659507
0.0017289538 0.029042266 0.043871664 0.01895506 -0.00866423 0.017014273 0.04213032 0.005447011
0.026175164 -0.003953468 -0.014578705 0.006871822 -0.0068171932 -0.032337643 0.014658609 -0.04982663
0.020900322 -0.0072754933 -0.004602444 0.027125064 0.034368478 -0.017627532 -0.04185546 0.040649816
0.0034487154 -0.05215463 0.002854738 -0.0258386 -0.017051304 0.031220237 0.010018334 0.0058271755
-0.05282303 -0.03559588 0.032824352 -0.03929402 -0.0066212965 0.027555102 -0.03224363 -0.024314683
0.02581227 0.021429218 -0.043891348 0.03729982 0.046387877 -0.027535407 0.022229463 0.006372231
-0.011742865 0.032653917 -9.369811e-06 -0.012381556 -0.04714184 -0.045559768 -0.019699087 0.010619496
-0.0042828172 0.01539734 0.028023235 -0.017533217 0.031614717 -0.0053884923 0.038882926 0.03967915
0.03990743 -0.015137398 0.011368819 -0.027825467 -0.024533499 0.007307567 -0.018042224 -0.03905122
-0.0043094587 0.053115107 0.01274977 -0.016525257 0.011622725 0.028688738 -0.032771435 0.039194502
0.034183998 0.02402571 0.029011544 0.04523075 0.010899761 0.0177942 0.0034998744 0.023959432
-0.032624744 0.05233963 0.011772655 -0.017672604 0.03400253 0.038503986 -0.024326054 -0.0034310196
0.028391683 -0.011445506 -0.04047432 0.026708346 0.0028861728 0.007833404 0.032203045 -0.018000556
-0.021885643 -0.034159366 0.007975971 0.0025612505 0.04416737 0.04854349 -0.050289392 0.020551804

embedding.bias f4 [400]
00000000: 1a91 c83d b909 cd3d d2bd c73d 033d d43d
00000010: e6eb d53d 78b2 c73d b0ce cf3d f82a ca3d
00000020: c377 d23d e7cc d23d 72b1 d13d 409a c43d
00000030: bcb4 c83d 8530 c73d 2c5a d33d 90fc c93d
00000040: 1f3e d53d 7aee d23d af2f cc3d d6df c53d
00000050: be83 c73d 4bb1 cb3d ab0d cd3d 32c4 d13d
00000060: 423c c63d 4df8 ca3d 0afc ce3d ed36 cb3d
00000070: 7c5c d03d 2f9f d53d d49f d13d f7b6 c33d
00000080: c7c9 c43d 84af c43d a740 c73d 15d0 d13d
00000090: 08fa d33d 29b0 d03d 79e0 bc3d ddab ce3d
000000a0: 118b c73d 1958 c93d b7fd d13d cbc7 d23d
000000b0: cd76 c63d 1ac2 d13d abd8 d33d b607 c83d
000000c0: 942d c63d e59b c63d 86e9 c93d 701b c83d
000000d0: 6f3f cd3d f115 d23d 8bd8 d23d 1db0 d23d
000000e0: b78b cf3d 7fe4 ca3d 2390 c53d f013 d23d
000000f0: 0fd4 c83d 6434 d73d 58d5 c93d 9b84 c63d
00000100: 02a7 c83d ffe0 c53d be0f d33d 4d51 c63d
00000110: fbcd c63d e99c c63d ffa0 d33d 8478 c63d
00000120: f6dc d53d 8ee8 d33d 3adf d43d fa66 c13d
00000130: e76f c53d 7a6e c73d e818 d33d 5447 cf3d
00000140: 9ea8 c53d e486 d23d 482e cf3d 4bff d23d
00000150: 9cf9 c63d c133 c73d f25e c73d 8091 c63d
00000160: 422b d63d 8823 d23d f713 d43d bd96 cb3d
00000170: a0d7 c73d 5816 d33d 7afc c63d 17bd d33d
00000180: bc69 c83d 4a08 ce3d 8791 d33d 2179 cd3d
00000190: cec7 d13d b9e9 d23d 1d42 c73d d03f cf3d
000001a0: 83f5 c73d aa6b cd3d 0ba7 cf3d 620d d03d
000001b0: 74a9 c73d f5ab c93d 91e6 cf3d b811 c83d
000001c0: c0f6 ce3d 53ec c73d fe61 c83d d1ae c83d
000001d0: 7575 c63d bae9 c93d 23e2 cd3d a4a9 d23d
000001e0: 30bb d13d 1796 d43d aba7 ca3d 72a7 d43d
000001f0: bc7c d33d 4084 d33d 5d4d d23d a4f5 ce3d
00000200: b1b5 d13d e48c cc3d 62fc c83d 40b1 c83d
00000210: d9bd c63d 7121 d33d d6c1 c43d f769 c53d
00000220: d8cd d13d 8953 cd3d 02c4 d23d 3e00 d43d
00000230: 1467 cf3d 84f8 ca3d 82a2 d23d b453 c03d
00000240: 7a31 ce3d 4901 ca3d 18b0 d23d c99d c53d
00000250: b2d9 c63d 9b9d d23d 6c44 d13d 4379 cc3d
00000260: b2fa cd3d 7507 d13d 1f06 c73d 6d78 c83d
00000270: 7661 ce3d e401 cf3d 452b cf3d 142d cf3d
00000280: 6ea2 c73d e8cc cc3d 5cb8 d33d 1de1 d33d
00000290: 9620 cf3d a395 c83d 24e2 c83d 8c32 cf3d
000002a0: 7eb3 d13d 50d8 d23d c767 d23d 720d c63d
000002b0: 4255 d33d 0222 cc3d 0190 d03d 7678 c93d
000002c0: f681 cc3d eabd d53d 30df d33d 08c0 cb3d
000002d0: 32a8 c73d 7ad6 c43d e873 c73d 7fb3 ca3d
000002e0: e379 d23d 6893 d33d bc6a cb3d 3e73 ce3d
000002f0: 566d cc3d f3cf ce3d c091 d33d 364e cd3d
00000300: 1304 c73d 63c8 c43d 4a4f d03d ea47 c83d
00000310: 64fe c33d 2f5b c83d 91a0 c63d 5393 d53d
00000320: eb63 c53d 3671 c73d e31c d43d 30ed d13d
00000330: f5ff c53d 5f7f d03d ded7 c73d 8788 d03d
00000340: 55bd c63d 6898 c33d 6242 c73d 5745 d03d
00000350: 49be d23d 8410 c73d 1a90 d23d 9dcb c43d
00000360: d47e c53d a702 c73d 8a91 c53d 4bdd d03d
00000370: 0fea cf3d 002c d23d e805 d13d 317e cb3d
00000380: 1891 c83d b765 ca3d 3ef0 c33d d435 c43d
00000390: c0a5 c03d 0924 c63d c4d3 c73d 8067 c43d
000003a0: 8347 d03d d30a c73d be08 d13d 608a ce3d
000003b0: 7ba8 d23d ff9b d03d 6b39 ca3d 493e d53d
000003c0: 1ec4 d33d c1f3 c43d a2ea ca3d d6cc cd3d
000003d0: 4404 d03d 4bbd c83d 66ba d13d ccc1 d03d
000003e0: 169c cc3d fbbe d23d 43ce d33d 7cc7 d13d
000003f0: 39d3 cb3d 9ae0 c63d 236d cb3d 541d ce3d
0.09793301 0.1001162 0.09753002 0.103631996 0.10445385 0.09750837 0.101468444 0.09871477
0.10276749 0.10292988 0.10238923 0.09599733 0.09800097 0.09726051 0.10319933 0.098626256
0.10412239 0.10299392 0.099700324 0.09661834 0.09741925 0.09945925 0.100123726 0.102424994
0.09679462 0.09910641 0.101066664 0.09922586 0.1017389 0.104307525 0.10235563 0.09556382
0.096087985 0.096037894 0.09729128 0.102447666 0.10350424 0.1018985 0.09222502 0.10091374
0.09743322 0.098312564 0.102534704 0.10292014 0.09690628 0.102421 0.103440605 0.09767096
0.09676662 0.09697703 0.09858994 0.09770858 0.100218646 0.10258091 0.102952085 0.10287497
0.1013407 0.099068634 0.096466325 0.10257709 0.09806072 0.105080396 0.09855145 0.09693261
0.09797479 0.09662055 0.10305737 0.09683476 0.097072564 0.09697897 0.10333442 0.09690955
0.104425356 0.10347091 0.103941396 0.09443469 0.09640484 0.097378686 0.10307485 0.10121027
0.09651302 0.102796346 0.10116249 0.103025995 0.09715578 0.09726668 0.09734906 0.09695721
0.104574695 0.10260683 0.103553705 0.099408604 0.09757924 0.10306996 0.09716125 0.103388004
0.09785792 0.10060175 0.103304915 0.10032869 0.10243188 0.10298485 0.09729407 0.10119593
0.097636245 0.10030301 0.10139283 0.101588026 0.097491175 0.09847251 0.10151399 0.097690046
0.101056576 0.09761872 0.097843155 0.097989686 0.09690372 0.09859033 0.10052898 0.10286263
0.10240781 0.1038019 0.098952614 0.103835 0.103265256 0.10327959 0.10268662 0.10105446
0.10239733 0.0998781 0.09813763 0.09799433 0.09704179 0.10309113 0.09607284 0.09639352
0.1024434 0.10025699 0.10291292 0.10351609 0.101270825 0.09910682 0.10284902 0.09390965
0.10068031 0.098635264 0.102874935 0.09649236 0.09709491 0.10283967 0.102181286 0.09984066
0.10057582 0.102065004 0.097179644 0.097885944 0.10077183 0.101077825 0.10115675 0.1011602
0.09747778 0.1000002 0.10337898 0.10345671 0.10113637 0.09794166 0.09808758 0.10117063
0.102393135 0.102951646 0.102737 0.09670533 0.10318996 0.09967424 0.101837166 0.09837429
0.099857256 0.10436614 0.10345304 0.099487364 0.097488776 0.09611221 0.09738904 0.098975174
0.10277154 0.1033085 0.09932467 0.100805745 0.09981792 0.10098257 0.10330534 0.10024683
0.09717574 0.09608533 0.10171373 0.097793415 0.095700055 0.09783017 0.09698594 0.104284905
0.096381985 0.0973839 0.10357072 0.10250318 0.096679606 0.10180544 0.0975797 0.101822905
0.09704081 0.095505536 0.097294584 0.101694755 0.102902 0.09719947 0.102813914 0.09609149
0.09643331 0.09717303 0.096469 0.10198458 0.10152065 0.102622986 0.10206205 0.099361785
0.097932994 0.09882682 0.09567307 0.095805794 0.09406614 0.09674842 0.09757188 0.095900536
0.1016989 0.097188614 0.102067456 0.10084987 0.10286041 0.10186004 0.09874233 0.104122706
0.10340141 0.09616805 0.09908034 0.10048835 0.101570636 0.0980173 0.10240631 0.10193214
0.099907085 0.10290333 0.10342076 0.10243127 0.09952397 0.09710808 0.099329256 0.10064188

encoder.weight f4 [10, 400]
00000000: 4ab1 7fbe d2ad 9cbe 620a 083e 9df0 873e
00000010: e762 1e3e cfb7 70be 0cc0 e33d 4215 953e
00000020: cfca 55be d8b2 713e 66a3 9ebe e6d0 87be
00000030: 8893 8f3e 4b0d 9bbe ff6e a1be 78df 9bbe
00000040: 06b4 f0bd d635 973d 9f20 793e 8d98 0b3e
00000050: 76b7 3e3d 291b ee3b 7ec8 a83c 0dfb 783e
00000060: 09e9 b73d 0912 993d dccd b8bd 25fd 3b3d
00000070: 44ba 5bbe 982b 09bd 4340 8fbe 9709 75be
00000080: eeab 5bbd e721 fd3c c915 15be c0cb 403c
00000090: 6bdb e63d 596a 63be 1bf4 8d3d 654d 653e
000000a0: 2c3a 833d ab83 4cbd 6dd0 88be b3eb 96be
000000b0: 8365 63be a27e 98bb 05cc 95bd 5c5f 51be
000000c0: 6f59 3f3b 98ec 21be c630 f43c f13a 873e
000000d0: 21e8 2c3d 763e 7cbd c84e 4fbe 6093 c43d
000000e0: cc00 37be 9c89 033e ca77 843c 87f1 6abe
000000f0: 5312 52bd 0ec7 933d bf46 263e 7ce8 32be
00000100: 1ae3 553e cc6d 8fbe 4526 88be 3943 12bd
00000110: 8434 e7bc d1af 163e fa07 a2be 905a 923e
00000120: 6df4 4b3e dca3 92bd e48d 3d3e 8599 8cbe
00000130: a1f5 f1bd 5dd2 c23d 845b 893e 711c 8cbe
00000140: 7cb2 5ebb 1e4f 9dbe e962 753e 7470 d9bd
00000150: e018 233d 0ae7 4fbe 21eb c63d dea7 82bc
00000160: 458a c13d 05d0 2f3e 3a19 4b3d 4301 0dbe
00000170: 3ba1 533e 2c36 16be e384 723e 05fd 88bd
00000180: fc11 413e b5ff d73d c03d c8bd 6a46 2f3e
00000190: 6db9 303e f63b 41bd 8e5e a03e ad74 8b3e
000001a0: 3cf9 46bd 3eaa 61be 5528 1e3e c60f 80be
000001b0: 5d6f 18be 3e14 80be 15c8 a0be 5b3e 733e
000001c0: c1b0 93be b0ef 393d e0a7 d53d 1853 8f3d
000001d0: b6b8 163c 4ee6 4c3d 1b20 f1bd dff2 173d
000001e0: 01ad a1be 23c1 dabd 100b ddbb be05 5ebd
000001f0: 4f6c 283e 4cc5 f93d 0d88 833e f241 f43d
00000200: c68d 5abd bb5e 6bbe af67 89bd bb42 1f3e
00000210: 8a54 0a3e cfb9 25be 509e 35be 4314 14be
00000220: 778b 6cbe 5172 66be fc2c 51bd 481b 3c3e
00000230: 560e 563e f071 353d b235 9bbe c6ea cabd
00000240: ef9a 693e b8a1 3d3d 1d69 93be 5172 763d
00000250: 0b97 26be e54c adbc 9233 8f3e a099 2ebc
00000260: 50a4 8cbe 91a0 a43d c1e3 52bb c176 13ba
00000270: 332f 293e 05fb 883e 0f97 cc3d d88f 68bd
00000280: 0a4e ffbd d014 8a3e 9a64 fcb9 2a39 94bd
00000290: 0b1d 373e e45e f5bd b847 853e 04d3 393e
000002a0: db23 66be 1a89 5bbc e1e8 a1be c1c3 a93c
000002b0: fe4a a33d 9ced dcbd f320 9fbe c23e d83b
000002c0: 4bf9 4e3e c80b 3dbe 23ed 8bbd 03e7 febd
000002d0: 13a0 2fbe 4d7f 40be e621 bcbd 26f0 2fbd
000002e0: c036 9cbe fbb3 4fbe fc45 32be c49b 5f3e
000002f0: 6281 913e e67e a73d 565b ae3d 3825 bbbd
00000300: 464d 8cbe e557 963e 1f68 133e aaa9 4fbe
00000310: 585d 943e 2594 5dbe 5551 86be d706 3f3e
00000320: 958a b63d abac 433d 7512 80be 0fb6 97be
00000330: 04b3 2abd 2305 9bbd 43ce 9c3d 2df8 58bd
00000340: a4e3 cebd 05ee 13bc 6c90 16be dd0e 9e3e
00000350: c969 7f3e 5416 3f3e 9d3e bbbd 193d e9bd
00000360: 73f6 3b3d a277 02be d149 7d3e 4118 343e
00000370: 1f8c 14bb 9593 a7bc 69cf 8fbd 251f 7cbd
00000380: eddd 743e 2633 4dbe 6a25 4fbd 40d2 073e
00000390: a317 9e3e a2e1 29be ce15 803e fdb5 283e
000003a0: 4755 41be b37d 083e 4ec1 a03e 1010 5abe
000003b0: 30e2 67be 5ace c53d 5a01 8a3e 0baf 95be
000003c0: 39f7 95be 1778 f9bd 995b 20be 2159 113d
000003d0: 783b 543e cc83 15be 8e4f 81bc 2a9b 873e
000003e0: eada 943e e246 33be 6bce 9f3e 9964 783e
000003f0: 4dbc 44be 9255 033e 6d2f 913e 6275 3cbe
-0.24969974 -0.30601364 0.1328521 0.2655076 0.15467416 -0.23507617 0.111206144 0.2911778
-0.20878147 0.2360338 -0.30984038 -0.26526564 0.28042245 -0.3028358 -0.31529996 -0.3044393
-0.11753087 0.07383315 0.2432885 0.13632412 0.04656168 0.0072664213 0.020603415 0.24314518
0.08979995 0.07474143 -0.090236396 0.045895714 -0.21457773 -0.03348884 -0.27978715 -0.2392944
-0.05363076 0.030899955 -0.14559092 0.011767328 0.112723194 -0.22208537 0.06931325 0.22392805
0.0640758 -0.049930256 -0.26721516 -0.294767 -0.22206692 -0.0046537677 -0.07314304 -0.20446533
0.0029197594 -0.1581291 0.029808413 0.26412156 0.042213563 -0.061583005 -0.20244896 0.09598422
-0.17871398 0.12845463 0.016170401 -0.22943698 -0.051287007 0.07215701 0.16237925 -0.17471498
0.20887414 -0.28013456 -0.26591697 -0.03570864 -0.028223284 0.14715506 -0.3164671 0.2858472
0.1991746 -0.0716016 0.18511158 -0.27460876 -0.11814428 0.0951278 0.26827633 -0.2736545
-0.0033980897 -0.30724424 0.23963512 -0.10617152 0.039818645 -0.20302978 0.09712816 -0.015949186
0.09450201 0.17169197 0.049584605 -0.13770013 0.20666973 -0.14669102 0.23683505 -0.06688885
0.18854517 0.10546819 -0.09777403 0.17116705 0.17258234 -0.047176324 0.3132214 0.27237454
-0.048577532 -0.22037598 0.15445073 -0.25012034 -0.14886232 -0.25015444 -0.3140265 0.23754255
-0.2884579 0.0453946 0.1043241 0.06998271 0.009199312 0.050024323 -0.11773702 0.037096854
-0.31577304 -0.10681369 -0.0067457035 -0.054204695 0.16447566 0.121958345 0.25689736 0.119266406
-0.053357862 -0.22985356 -0.06709229 0.155528 0.13508812 -0.16184162 -0.17736173 -0.14460854
-0.23100077 -0.22504546 -0.05106829 0.18369782 0.20903906 0.044298112 -0.30314404 -0.09908061
0.22813009 0.046296805 -0.28791133 0.060167614 -0.16268556 -0.02115483 0.27969033 -0.010656744
-0.2746911 0.08038438 -0.003217921 -0.00056253007 0.16521911 0.26754013 0.0998975 -0.056777805
-0.12466057 0.26969004 -0.0004814014 -0.07237466 0.17882173 -0.119809896 0.2603128 0.18146902
-0.22474615 -0.013399387 -0.31622985 0.020723226 0.07973288 -0.10787508 -0.31079826 0.006599278
0.20212285 -0.18461525 -0.068323396 -0.12446406 -0.17150907 -0.18798561 -0.09186153 -0.042953633
-0.3051052 -0.20283501 -0.1740951 0.21836764 0.28419024 0.08178501 0.08513515 -0.09137958
-0.27402705 0.29363933 0.14395188 -0.20279565 0.28977466 -0.21638544 -0.26233926 0.18654953
0.08913151 0.04777209 -0.25014082 -0.29631087 -0.04167463 -0.07569339 0.07656529 -0.052971054
-0.10102013 -0.009028916 -0.1470353 0.30870715 0.24942698 0.18660861 -0.09142802 -0.113886066
0.04588933 -0.12740949 0.2473519 0.17587377 -0.0022666526 -0.020456115 -0.07021982 -0.06155314
0.23912783 -0.20039043 -0.05057279 0.13263798 0.30877408 -0.16589978 0.25016636 0.16475673
-0.18880187 0.133292 0.3139748 -0.2129519 -0.22644877 0.09658499 0.26954156 -0.2923511
-0.29290178 -0.121811084 -0.15659942 0.03548539 0.2072581 -0.14601058 -0.015785005 0.26485568
0.29073268 -0.17507508 0.31212172 0.24257125 -0.19212456 0.12825611 0.28356495 -0.18404153

encoder.bias f4 [10]
00000000: 72b5 ca3d c20c c83d 65d0 c83d cdcc cc3d
00000010: a418 c83d 9a6d d03d de6d cb3d 1e9b d33d
00000020: 8a20 c63d ba38 c83d
0.09897889 0.09768058 0.09805373 0.1 0.09770325 0.10177155 0.09933065 0.10332321
0.09674175 0.09776445

decoder.weight f4 [4, 10]
00000000: c432 5b3e 89c7 b8be 10ed 40be eadc f5be
00000010: 7101 483c c325 f3bd 1035 59be 1c24 adbe
00000020: 20cb 643e 92ad d03e a9a7 90be 9cf8 203e
00000030: 093e d4be 9870 7e3e ac34 cb3e 0667 a23e
00000040: dbb4 3bbc 25be 3d3e 6ea7 56bb 2307 2c3e
00000050: cd74 83be 0429 e83e 9007 8b3e 8836 c73e
00000060: 59a9 6d3e c772 883e d044 73be 9348 8fbe
00000070: 4edd 3e3e 29bc 6fbe 7b4d 883e 7adc b2be
00000080: f740 3a3e 2a34 8fbe 65bc 813e 599b d0be
00000090: 9b06 ba3e 713d 7fbe 577a cc3d 3e65 3e3e
0.21406084 -0.36089733 -0.18840432 -0.48020107 0.012207375 -0.11872437 -0.21211648 -0.33816612
0.22343111 0.40757424 -0.28252915 0.15719837 -0.4145358 0.24847639 0.39688623 0.31719226
-0.0114566935 0.18529566 -0.0032753604 0.16799597 -0.2567505 0.45343792 0.27154207 0.38908792
0.23209132 0.26650068 -0.23756719 -0.27985057 0.18639109 -0.23411621 0.26621613 -0.34933835
0.18188845 -0.27969486 0.25339046 -0.4074352 0.36333165 -0.24925782 0.09984272 0.18593308

decoder.bias f4 [4]
00000000: 8b35 ca3d db14 c23d 2221 c33d 7266 c23d
0.09873494 0.09476634 0.09527804 0.09492196
